…
# bidirectional LSTM layers with units=128
blstm_1 = Bidirectional(LSTM(256, return_sequences=True, dropout = 0.2))(squeezed)
blstm_2 = Bidirectional(LSTM(256, return_sequences=True, dropout = 0.2))(blstm_1)
 
outputs = Dense(len(char_list)+1, activation = 'softmax')(blstm_2)

# model to be used at test time
act_model = Model(inputs, outputs)

In [61]:

act_model.summary()

Model: "model_1"
_________________________________________________________________
Layer (type)                 Output Shape              Param #   
=================================================================
input_1 (InputLayer)         (None, 32, 128, 1)        0         
_________________________________________________________________
conv2d_1 (Conv2D)            (None, 32, 128, 64)       640       
_________________________________________________________________
max_pooling2d_1 (MaxPooling2 (None, 16, 64, 64)        0         
_________________________________________________________________
conv2d_2 (Conv2D)            (None, 16, 64, 128)       73856     
_________________________________________________________________
max_pooling2d_2 (MaxPooling2 (None, 8, 32, 128)        0         
_________________________________________________________________
conv2d_3 (Conv2D)            (None, 8, 32, 256)        295168    
_________________________________________________________________
conv2d_4 (Conv2D)            (None, 8, 32, 256)        590080    
_________________________________________________________________
max_pooling2d_3 (MaxPooling2 (None, 4, 32, 256)        0         
_________________________________________________________________
conv2d_5 (Conv2D)            (None, 4, 32, 512)        1180160   
_________________________________________________________________
batch_normalization_1 (Batch (None, 4, 32, 512)        2048      
_________________________________________________________________
conv2d_6 (Conv2D)            (None, 4, 32, 512)        2359808   
_________________________________________________________________
batch_normalization_2 (Batch (None, 4, 32, 512)        2048      
_________________________________________________________________
max_pooling2d_4 (MaxPooling2 (None, 2, 32, 512)        0         
_________________________________________________________________
conv2d_7 (Conv2D)            (None, 1, 31, 512)        1049088   
_________________________________________________________________
lambda_1 (Lambda)            (None, 31, 512)           0         
_________________________________________________________________
bidirectional_1 (Bidirection (None, 31, 512)           1574912   
_________________________________________________________________
bidirectional_2 (Bidirection (None, 31, 512)           1574912   
_________________________________________________________________
dense_1 (Dense)              (None, 31, 79)            40527     
=================================================================
Total params: 8,743,247
Trainable params: 8,741,199
Non-trainable params: 2,048
_________________________________________________________________

Loss Function

Here, we are using the CTC loss function. CTC loss is very helpful in text recognition problems. It helps us to prevent annotating each time step and help us to get rid of the problem where a single character can span multiple time step which needs further processing if we do not use CTC.
…
